{"config": {"output_layers": [["activation_1", 0, 0]], "layers": [{"config": {"sparse": false, "batch_input_shape": [null, 1, 544, 544], "dtype": "float32", "name": "input_1"}, "class_name": "InputLayer", "inbound_nodes": [], "name": "input_1"}, {"config": {"dilation_rate": [1, 1], "kernel_initializer": {"config": {"scale": 1.0, "seed": null, "mode": "fan_avg", "distribution": "uniform"}, "class_name": "VarianceScaling"}, "use_bias": true, "kernel_size": [3, 3], "padding": "valid", "bias_constraint": null, "trainable": true, "kernel_regularizer": null, "name": "seg10", "activation": "relu", "activity_regularizer": null, "data_format": "channels_first", "bias_initializer": {"config": {}, "class_name": "Zeros"}, "filters": 32, "strides": [1, 1], "kernel_constraint": null, "bias_regularizer": null}, "class_name": "Conv2D", "inbound_nodes": [[["input_1", 0, 0, {}]]], "name": "seg10"}, {"config": {"trainable": true, "noise_shape": null, "rate": 0.2, "name": "seg1_do10", "seed": null}, "class_name": "Dropout", "inbound_nodes": [[["seg10", 0, 0, {}]]], "name": "seg1_do10"}, {"config": {"dilation_rate": [1, 1], "kernel_initializer": {"config": {"scale": 1.0, "seed": null, "mode": "fan_avg", "distribution": "uniform"}, "class_name": "VarianceScaling"}, "use_bias": true, "kernel_size": [3, 3], "padding": "same", "bias_constraint": null, "trainable": true, "kernel_regularizer": null, "name": "seg11", "activation": "relu", "activity_regularizer": null, "data_format": "channels_first", "bias_initializer": {"config": {}, "class_name": "Zeros"}, "filters": 32, "strides": [1, 1], "kernel_constraint": null, "bias_regularizer": null}, "class_name": "Conv2D", "inbound_nodes": [[["seg1_do10", 0, 0, {}]]], "name": "seg11"}, {"config": {"trainable": true, "noise_shape": null, "rate": 0.2, "name": "seg1_do11", "seed": null}, "class_name": "Dropout", "inbound_nodes": [[["seg11", 0, 0, {}]]], "name": "seg1_do11"}, {"config": {"trainable": true, "name": "seg1_conca", "axis": 1}, "class_name": "Concatenate", "inbound_nodes": [[["seg1_do10", 0, 0, {}], ["seg1_do11", 0, 0, {}]]], "name": "seg1_conca"}, {"config": {"gamma_regularizer": null, "gamma_initializer": {"config": {}, "class_name": "Ones"}, "gamma_constraint": null, "moving_mean_initializer": {"config": {}, "class_name": "Zeros"}, "beta_initializer": {"config": {}, "class_name": "Zeros"}, "epsilon": 1.1e-05, "trainable": true, "momentum": 0.99, "axis": -1, "moving_variance_initializer": {"config": {}, "class_name": "Ones"}, "name": "seg1_bn1", "beta_constraint": null, "beta_regularizer": null, "scale": true, "center": true}, "class_name": "BatchNormalization", "inbound_nodes": [[["seg1_conca", 0, 0, {}]]], "name": "seg1_bn1"}, {"config": {"bias_constraint": null, "kernel_initializer": {"config": {"scale": 1.0, "seed": null, "mode": "fan_avg", "distribution": "uniform"}, "class_name": "VarianceScaling"}, "use_bias": true, "kernel_size": [3, 3], "padding": "valid", "trainable": true, "kernel_regularizer": null, "name": "seg12", "activation": "relu", "activity_regularizer": null, "data_format": "channels_first", "bias_initializer": {"config": {}, "class_name": "Zeros"}, "filters": 32, "strides": [1, 1], "kernel_constraint": null, "bias_regularizer": null}, "class_name": "Conv2DTranspose", "inbound_nodes": [[["seg1_bn1", 0, 0, {}]]], "name": "seg12"}, {"config": {"trainable": true, "noise_shape": null, "rate": 0.2, "name": "seg1_do12", "seed": null}, "class_name": "Dropout", "inbound_nodes": [[["seg12", 0, 0, {}]]], "name": "seg1_do12"}, {"config": {"pool_size": [2, 2], "padding": "valid", "data_format": "channels_first", "trainable": true, "strides": [2, 2], "name": "pool1"}, "class_name": "MaxPooling2D", "inbound_nodes": [[["seg1_do12", 0, 0, {}]]], "name": "pool1"}, {"config": {"dilation_rate": [1, 1], "kernel_initializer": {"config": {"scale": 1.0, "seed": null, "mode": "fan_avg", "distribution": "uniform"}, "class_name": "VarianceScaling"}, "use_bias": true, "kernel_size": [3, 3], "padding": "valid", "bias_constraint": null, "trainable": true, "kernel_regularizer": null, "name": "seg20", "activation": "relu", "activity_regularizer": null, "data_format": "channels_first", "bias_initializer": {"config": {}, "class_name": "Zeros"}, "filters": 48, "strides": [1, 1], "kernel_constraint": null, "bias_regularizer": null}, "class_name": "Conv2D", "inbound_nodes": [[["pool1", 0, 0, {}]]], "name": "seg20"}, {"config": {"trainable": true, "noise_shape": null, "rate": 0.2, "name": "seg2_do10", "seed": null}, "class_name": "Dropout", "inbound_nodes": [[["seg20", 0, 0, {}]]], "name": "seg2_do10"}, {"config": {"dilation_rate": [1, 1], "kernel_initializer": {"config": {"scale": 1.0, "seed": null, "mode": "fan_avg", "distribution": "uniform"}, "class_name": "VarianceScaling"}, "use_bias": true, "kernel_size": [3, 3], "padding": "same", "bias_constraint": null, "trainable": true, "kernel_regularizer": null, "name": "seg21", "activation": "relu", "activity_regularizer": null, "data_format": "channels_first", "bias_initializer": {"config": {}, "class_name": "Zeros"}, "filters": 48, "strides": [1, 1], "kernel_constraint": null, "bias_regularizer": null}, "class_name": "Conv2D", "inbound_nodes": [[["seg2_do10", 0, 0, {}]]], "name": "seg21"}, {"config": {"trainable": true, "noise_shape": null, "rate": 0.2, "name": "seg2_do11", "seed": null}, "class_name": "Dropout", "inbound_nodes": [[["seg21", 0, 0, {}]]], "name": "seg2_do11"}, {"config": {"trainable": true, "name": "seg2_conca", "axis": 1}, "class_name": "Concatenate", "inbound_nodes": [[["seg2_do10", 0, 0, {}], ["seg2_do11", 0, 0, {}]]], "name": "seg2_conca"}, {"config": {"gamma_regularizer": null, "gamma_initializer": {"config": {}, "class_name": "Ones"}, "gamma_constraint": null, "moving_mean_initializer": {"config": {}, "class_name": "Zeros"}, "beta_initializer": {"config": {}, "class_name": "Zeros"}, "epsilon": 1.1e-05, "trainable": true, "momentum": 0.99, "axis": -1, "moving_variance_initializer": {"config": {}, "class_name": "Ones"}, "name": "seg2_bn1", "beta_constraint": null, "beta_regularizer": null, "scale": true, "center": true}, "class_name": "BatchNormalization", "inbound_nodes": [[["seg2_conca", 0, 0, {}]]], "name": "seg2_bn1"}, {"config": {"bias_constraint": null, "kernel_initializer": {"config": {"scale": 1.0, "seed": null, "mode": "fan_avg", "distribution": "uniform"}, "class_name": "VarianceScaling"}, "use_bias": true, "kernel_size": [3, 3], "padding": "valid", "trainable": true, "kernel_regularizer": null, "name": "seg22", "activation": "relu", "activity_regularizer": null, "data_format": "channels_first", "bias_initializer": {"config": {}, "class_name": "Zeros"}, "filters": 48, "strides": [1, 1], "kernel_constraint": null, "bias_regularizer": null}, "class_name": "Conv2DTranspose", "inbound_nodes": [[["seg2_bn1", 0, 0, {}]]], "name": "seg22"}, {"config": {"trainable": true, "noise_shape": null, "rate": 0.2, "name": "seg2_do12", "seed": null}, "class_name": "Dropout", "inbound_nodes": [[["seg22", 0, 0, {}]]], "name": "seg2_do12"}, {"config": {"pool_size": [2, 2], "padding": "valid", "data_format": "channels_first", "trainable": true, "strides": [2, 2], "name": "pool2"}, "class_name": "MaxPooling2D", "inbound_nodes": [[["seg2_do12", 0, 0, {}]]], "name": "pool2"}, {"config": {"dilation_rate": [1, 1], "kernel_initializer": {"config": {"scale": 1.0, "seed": null, "mode": "fan_avg", "distribution": "uniform"}, "class_name": "VarianceScaling"}, "use_bias": true, "kernel_size": [3, 3], "padding": "valid", "bias_constraint": null, "trainable": true, "kernel_regularizer": null, "name": "seg30", "activation": "relu", "activity_regularizer": null, "data_format": "channels_first", "bias_initializer": {"config": {}, "class_name": "Zeros"}, "filters": 64, "strides": [1, 1], "kernel_constraint": null, "bias_regularizer": null}, "class_name": "Conv2D", "inbound_nodes": [[["pool2", 0, 0, {}]]], "name": "seg30"}, {"config": {"trainable": true, "noise_shape": null, "rate": 0.2, "name": "seg3_do10", "seed": null}, "class_name": "Dropout", "inbound_nodes": [[["seg30", 0, 0, {}]]], "name": "seg3_do10"}, {"config": {"dilation_rate": [1, 1], "kernel_initializer": {"config": {"scale": 1.0, "seed": null, "mode": "fan_avg", "distribution": "uniform"}, "class_name": "VarianceScaling"}, "use_bias": true, "kernel_size": [3, 3], "padding": "same", "bias_constraint": null, "trainable": true, "kernel_regularizer": null, "name": "seg31", "activation": "relu", "activity_regularizer": null, "data_format": "channels_first", "bias_initializer": {"config": {}, "class_name": "Zeros"}, "filters": 64, "strides": [1, 1], "kernel_constraint": null, "bias_regularizer": null}, "class_name": "Conv2D", "inbound_nodes": [[["seg3_do10", 0, 0, {}]]], "name": "seg31"}, {"config": {"trainable": true, "noise_shape": null, "rate": 0.2, "name": "seg3_do11", "seed": null}, "class_name": "Dropout", "inbound_nodes": [[["seg31", 0, 0, {}]]], "name": "seg3_do11"}, {"config": {"trainable": true, "name": "seg3_conca", "axis": 1}, "class_name": "Concatenate", "inbound_nodes": [[["seg3_do10", 0, 0, {}], ["seg3_do11", 0, 0, {}]]], "name": "seg3_conca"}, {"config": {"gamma_regularizer": null, "gamma_initializer": {"config": {}, "class_name": "Ones"}, "gamma_constraint": null, "moving_mean_initializer": {"config": {}, "class_name": "Zeros"}, "beta_initializer": {"config": {}, "class_name": "Zeros"}, "epsilon": 1.1e-05, "trainable": true, "momentum": 0.99, "axis": -1, "moving_variance_initializer": {"config": {}, "class_name": "Ones"}, "name": "seg3_bn1", "beta_constraint": null, "beta_regularizer": null, "scale": true, "center": true}, "class_name": "BatchNormalization", "inbound_nodes": [[["seg3_conca", 0, 0, {}]]], "name": "seg3_bn1"}, {"config": {"bias_constraint": null, "kernel_initializer": {"config": {"scale": 1.0, "seed": null, "mode": "fan_avg", "distribution": "uniform"}, "class_name": "VarianceScaling"}, "use_bias": true, "kernel_size": [3, 3], "padding": "valid", "trainable": true, "kernel_regularizer": null, "name": "seg32", "activation": "relu", "activity_regularizer": null, "data_format": "channels_first", "bias_initializer": {"config": {}, "class_name": "Zeros"}, "filters": 64, "strides": [1, 1], "kernel_constraint": null, "bias_regularizer": null}, "class_name": "Conv2DTranspose", "inbound_nodes": [[["seg3_bn1", 0, 0, {}]]], "name": "seg32"}, {"config": {"trainable": true, "noise_shape": null, "rate": 0.2, "name": "seg3_do12", "seed": null}, "class_name": "Dropout", "inbound_nodes": [[["seg32", 0, 0, {}]]], "name": "seg3_do12"}, {"config": {"pool_size": [2, 2], "padding": "valid", "data_format": "channels_first", "trainable": true, "strides": [2, 2], "name": "pool3"}, "class_name": "MaxPooling2D", "inbound_nodes": [[["seg3_do12", 0, 0, {}]]], "name": "pool3"}, {"config": {"dilation_rate": [1, 1], "kernel_initializer": {"config": {"scale": 1.0, "seed": null, "mode": "fan_avg", "distribution": "uniform"}, "class_name": "VarianceScaling"}, "use_bias": true, "kernel_size": [3, 3], "padding": "valid", "bias_constraint": null, "trainable": true, "kernel_regularizer": null, "name": "seg40", "activation": "relu", "activity_regularizer": null, "data_format": "channels_first", "bias_initializer": {"config": {}, "class_name": "Zeros"}, "filters": 80, "strides": [1, 1], "kernel_constraint": null, "bias_regularizer": null}, "class_name": "Conv2D", "inbound_nodes": [[["pool3", 0, 0, {}]]], "name": "seg40"}, {"config": {"trainable": true, "noise_shape": null, "rate": 0.2, "name": "seg4_do10", "seed": null}, "class_name": "Dropout", "inbound_nodes": [[["seg40", 0, 0, {}]]], "name": "seg4_do10"}, {"config": {"dilation_rate": [1, 1], "kernel_initializer": {"config": {"scale": 1.0, "seed": null, "mode": "fan_avg", "distribution": "uniform"}, "class_name": "VarianceScaling"}, "use_bias": true, "kernel_size": [3, 3], "padding": "same", "bias_constraint": null, "trainable": true, "kernel_regularizer": null, "name": "seg41", "activation": "relu", "activity_regularizer": null, "data_format": "channels_first", "bias_initializer": {"config": {}, "class_name": "Zeros"}, "filters": 80, "strides": [1, 1], "kernel_constraint": null, "bias_regularizer": null}, "class_name": "Conv2D", "inbound_nodes": [[["seg4_do10", 0, 0, {}]]], "name": "seg41"}, {"config": {"trainable": true, "noise_shape": null, "rate": 0.2, "name": "seg4_do11", "seed": null}, "class_name": "Dropout", "inbound_nodes": [[["seg41", 0, 0, {}]]], "name": "seg4_do11"}, {"config": {"trainable": true, "name": "seg4_conca", "axis": 1}, "class_name": "Concatenate", "inbound_nodes": [[["seg4_do10", 0, 0, {}], ["seg4_do11", 0, 0, {}]]], "name": "seg4_conca"}, {"config": {"gamma_regularizer": null, "gamma_initializer": {"config": {}, "class_name": "Ones"}, "gamma_constraint": null, "moving_mean_initializer": {"config": {}, "class_name": "Zeros"}, "beta_initializer": {"config": {}, "class_name": "Zeros"}, "epsilon": 1.1e-05, "trainable": true, "momentum": 0.99, "axis": -1, "moving_variance_initializer": {"config": {}, "class_name": "Ones"}, "name": "seg4_bn1", "beta_constraint": null, "beta_regularizer": null, "scale": true, "center": true}, "class_name": "BatchNormalization", "inbound_nodes": [[["seg4_conca", 0, 0, {}]]], "name": "seg4_bn1"}, {"config": {"bias_constraint": null, "kernel_initializer": {"config": {"scale": 1.0, "seed": null, "mode": "fan_avg", "distribution": "uniform"}, "class_name": "VarianceScaling"}, "use_bias": true, "kernel_size": [3, 3], "padding": "valid", "trainable": true, "kernel_regularizer": null, "name": "seg42", "activation": "relu", "activity_regularizer": null, "data_format": "channels_first", "bias_initializer": {"config": {}, "class_name": "Zeros"}, "filters": 80, "strides": [1, 1], "kernel_constraint": null, "bias_regularizer": null}, "class_name": "Conv2DTranspose", "inbound_nodes": [[["seg4_bn1", 0, 0, {}]]], "name": "seg42"}, {"config": {"trainable": true, "noise_shape": null, "rate": 0.2, "name": "seg4_do12", "seed": null}, "class_name": "Dropout", "inbound_nodes": [[["seg42", 0, 0, {}]]], "name": "seg4_do12"}, {"config": {"pool_size": [2, 2], "padding": "valid", "data_format": "channels_first", "trainable": true, "strides": [2, 2], "name": "pool4"}, "class_name": "MaxPooling2D", "inbound_nodes": [[["seg4_do12", 0, 0, {}]]], "name": "pool4"}, {"config": {"dilation_rate": [1, 1], "kernel_initializer": {"config": {"scale": 1.0, "seed": null, "mode": "fan_avg", "distribution": "uniform"}, "class_name": "VarianceScaling"}, "use_bias": true, "kernel_size": [3, 3], "padding": "valid", "bias_constraint": null, "trainable": true, "kernel_regularizer": null, "name": "seg50", "activation": "relu", "activity_regularizer": null, "data_format": "channels_first", "bias_initializer": {"config": {}, "class_name": "Zeros"}, "filters": 96, "strides": [1, 1], "kernel_constraint": null, "bias_regularizer": null}, "class_name": "Conv2D", "inbound_nodes": [[["pool4", 0, 0, {}]]], "name": "seg50"}, {"config": {"trainable": true, "noise_shape": null, "rate": 0.2, "name": "seg5_do10", "seed": null}, "class_name": "Dropout", "inbound_nodes": [[["seg50", 0, 0, {}]]], "name": "seg5_do10"}, {"config": {"dilation_rate": [1, 1], "kernel_initializer": {"config": {"scale": 1.0, "seed": null, "mode": "fan_avg", "distribution": "uniform"}, "class_name": "VarianceScaling"}, "use_bias": true, "kernel_size": [3, 3], "padding": "same", "bias_constraint": null, "trainable": true, "kernel_regularizer": null, "name": "seg51", "activation": "relu", "activity_regularizer": null, "data_format": "channels_first", "bias_initializer": {"config": {}, "class_name": "Zeros"}, "filters": 96, "strides": [1, 1], "kernel_constraint": null, "bias_regularizer": null}, "class_name": "Conv2D", "inbound_nodes": [[["seg5_do10", 0, 0, {}]]], "name": "seg51"}, {"config": {"trainable": true, "noise_shape": null, "rate": 0.2, "name": "seg5_do11", "seed": null}, "class_name": "Dropout", "inbound_nodes": [[["seg51", 0, 0, {}]]], "name": "seg5_do11"}, {"config": {"trainable": true, "name": "seg5_conca", "axis": 1}, "class_name": "Concatenate", "inbound_nodes": [[["seg5_do10", 0, 0, {}], ["seg5_do11", 0, 0, {}]]], "name": "seg5_conca"}, {"config": {"gamma_regularizer": null, "gamma_initializer": {"config": {}, "class_name": "Ones"}, "gamma_constraint": null, "moving_mean_initializer": {"config": {}, "class_name": "Zeros"}, "beta_initializer": {"config": {}, "class_name": "Zeros"}, "epsilon": 1.1e-05, "trainable": true, "momentum": 0.99, "axis": -1, "moving_variance_initializer": {"config": {}, "class_name": "Ones"}, "name": "seg5_bn1", "beta_constraint": null, "beta_regularizer": null, "scale": true, "center": true}, "class_name": "BatchNormalization", "inbound_nodes": [[["seg5_conca", 0, 0, {}]]], "name": "seg5_bn1"}, {"config": {"bias_constraint": null, "kernel_initializer": {"config": {"scale": 1.0, "seed": null, "mode": "fan_avg", "distribution": "uniform"}, "class_name": "VarianceScaling"}, "use_bias": true, "kernel_size": [3, 3], "padding": "valid", "trainable": true, "kernel_regularizer": null, "name": "seg52", "activation": "relu", "activity_regularizer": null, "data_format": "channels_first", "bias_initializer": {"config": {}, "class_name": "Zeros"}, "filters": 96, "strides": [1, 1], "kernel_constraint": null, "bias_regularizer": null}, "class_name": "Conv2DTranspose", "inbound_nodes": [[["seg5_bn1", 0, 0, {}]]], "name": "seg52"}, {"config": {"trainable": true, "noise_shape": null, "rate": 0.2, "name": "seg5_do12", "seed": null}, "class_name": "Dropout", "inbound_nodes": [[["seg52", 0, 0, {}]]], "name": "seg5_do12"}, {"config": {"trainable": true, "name": "conca1", "axis": 1}, "class_name": "Concatenate", "inbound_nodes": [[["pool4", 0, 0, {}], ["seg5_do12", 0, 0, {}]]], "name": "conca1"}, {"config": {"trainable": true, "name": "up_sampling2d_1", "data_format": "channels_first", "size": [2, 2]}, "class_name": "UpSampling2D", "inbound_nodes": [[["conca1", 0, 0, {}]]], "name": "up_sampling2d_1"}, {"config": {"dilation_rate": [1, 1], "kernel_initializer": {"config": {"scale": 1.0, "seed": null, "mode": "fan_avg", "distribution": "uniform"}, "class_name": "VarianceScaling"}, "use_bias": true, "kernel_size": [3, 3], "padding": "valid", "bias_constraint": null, "trainable": true, "kernel_regularizer": null, "name": "seg60", "activation": "relu", "activity_regularizer": null, "data_format": "channels_first", "bias_initializer": {"config": {}, "class_name": "Zeros"}, "filters": 80, "strides": [1, 1], "kernel_constraint": null, "bias_regularizer": null}, "class_name": "Conv2D", "inbound_nodes": [[["up_sampling2d_1", 0, 0, {}]]], "name": "seg60"}, {"config": {"trainable": true, "noise_shape": null, "rate": 0.2, "name": "seg6_do10", "seed": null}, "class_name": "Dropout", "inbound_nodes": [[["seg60", 0, 0, {}]]], "name": "seg6_do10"}, {"config": {"dilation_rate": [1, 1], "kernel_initializer": {"config": {"scale": 1.0, "seed": null, "mode": "fan_avg", "distribution": "uniform"}, "class_name": "VarianceScaling"}, "use_bias": true, "kernel_size": [3, 3], "padding": "same", "bias_constraint": null, "trainable": true, "kernel_regularizer": null, "name": "seg61", "activation": "relu", "activity_regularizer": null, "data_format": "channels_first", "bias_initializer": {"config": {}, "class_name": "Zeros"}, "filters": 80, "strides": [1, 1], "kernel_constraint": null, "bias_regularizer": null}, "class_name": "Conv2D", "inbound_nodes": [[["seg6_do10", 0, 0, {}]]], "name": "seg61"}, {"config": {"trainable": true, "noise_shape": null, "rate": 0.2, "name": "seg6_do11", "seed": null}, "class_name": "Dropout", "inbound_nodes": [[["seg61", 0, 0, {}]]], "name": "seg6_do11"}, {"config": {"trainable": true, "name": "seg6_conca", "axis": 1}, "class_name": "Concatenate", "inbound_nodes": [[["seg6_do10", 0, 0, {}], ["seg6_do11", 0, 0, {}]]], "name": "seg6_conca"}, {"config": {"gamma_regularizer": null, "gamma_initializer": {"config": {}, "class_name": "Ones"}, "gamma_constraint": null, "moving_mean_initializer": {"config": {}, "class_name": "Zeros"}, "beta_initializer": {"config": {}, "class_name": "Zeros"}, "epsilon": 1.1e-05, "trainable": true, "momentum": 0.99, "axis": -1, "moving_variance_initializer": {"config": {}, "class_name": "Ones"}, "name": "seg6_bn1", "beta_constraint": null, "beta_regularizer": null, "scale": true, "center": true}, "class_name": "BatchNormalization", "inbound_nodes": [[["seg6_conca", 0, 0, {}]]], "name": "seg6_bn1"}, {"config": {"bias_constraint": null, "kernel_initializer": {"config": {"scale": 1.0, "seed": null, "mode": "fan_avg", "distribution": "uniform"}, "class_name": "VarianceScaling"}, "use_bias": true, "kernel_size": [3, 3], "padding": "valid", "trainable": true, "kernel_regularizer": null, "name": "seg62", "activation": "relu", "activity_regularizer": null, "data_format": "channels_first", "bias_initializer": {"config": {}, "class_name": "Zeros"}, "filters": 80, "strides": [1, 1], "kernel_constraint": null, "bias_regularizer": null}, "class_name": "Conv2DTranspose", "inbound_nodes": [[["seg6_bn1", 0, 0, {}]]], "name": "seg62"}, {"config": {"trainable": true, "noise_shape": null, "rate": 0.2, "name": "seg6_do12", "seed": null}, "class_name": "Dropout", "inbound_nodes": [[["seg62", 0, 0, {}]]], "name": "seg6_do12"}, {"config": {"trainable": true, "name": "conca2", "axis": 1}, "class_name": "Concatenate", "inbound_nodes": [[["pool3", 0, 0, {}], ["seg6_do12", 0, 0, {}]]], "name": "conca2"}, {"config": {"trainable": true, "name": "up_sampling2d_2", "data_format": "channels_first", "size": [2, 2]}, "class_name": "UpSampling2D", "inbound_nodes": [[["conca2", 0, 0, {}]]], "name": "up_sampling2d_2"}, {"config": {"dilation_rate": [1, 1], "kernel_initializer": {"config": {"scale": 1.0, "seed": null, "mode": "fan_avg", "distribution": "uniform"}, "class_name": "VarianceScaling"}, "use_bias": true, "kernel_size": [3, 3], "padding": "valid", "bias_constraint": null, "trainable": true, "kernel_regularizer": null, "name": "seg70", "activation": "relu", "activity_regularizer": null, "data_format": "channels_first", "bias_initializer": {"config": {}, "class_name": "Zeros"}, "filters": 64, "strides": [1, 1], "kernel_constraint": null, "bias_regularizer": null}, "class_name": "Conv2D", "inbound_nodes": [[["up_sampling2d_2", 0, 0, {}]]], "name": "seg70"}, {"config": {"trainable": true, "noise_shape": null, "rate": 0.2, "name": "seg7_do10", "seed": null}, "class_name": "Dropout", "inbound_nodes": [[["seg70", 0, 0, {}]]], "name": "seg7_do10"}, {"config": {"dilation_rate": [1, 1], "kernel_initializer": {"config": {"scale": 1.0, "seed": null, "mode": "fan_avg", "distribution": "uniform"}, "class_name": "VarianceScaling"}, "use_bias": true, "kernel_size": [3, 3], "padding": "same", "bias_constraint": null, "trainable": true, "kernel_regularizer": null, "name": "seg71", "activation": "relu", "activity_regularizer": null, "data_format": "channels_first", "bias_initializer": {"config": {}, "class_name": "Zeros"}, "filters": 64, "strides": [1, 1], "kernel_constraint": null, "bias_regularizer": null}, "class_name": "Conv2D", "inbound_nodes": [[["seg7_do10", 0, 0, {}]]], "name": "seg71"}, {"config": {"trainable": true, "noise_shape": null, "rate": 0.2, "name": "seg7_do11", "seed": null}, "class_name": "Dropout", "inbound_nodes": [[["seg71", 0, 0, {}]]], "name": "seg7_do11"}, {"config": {"trainable": true, "name": "seg7_conca", "axis": 1}, "class_name": "Concatenate", "inbound_nodes": [[["seg7_do10", 0, 0, {}], ["seg7_do11", 0, 0, {}]]], "name": "seg7_conca"}, {"config": {"gamma_regularizer": null, "gamma_initializer": {"config": {}, "class_name": "Ones"}, "gamma_constraint": null, "moving_mean_initializer": {"config": {}, "class_name": "Zeros"}, "beta_initializer": {"config": {}, "class_name": "Zeros"}, "epsilon": 1.1e-05, "trainable": true, "momentum": 0.99, "axis": -1, "moving_variance_initializer": {"config": {}, "class_name": "Ones"}, "name": "seg7_bn1", "beta_constraint": null, "beta_regularizer": null, "scale": true, "center": true}, "class_name": "BatchNormalization", "inbound_nodes": [[["seg7_conca", 0, 0, {}]]], "name": "seg7_bn1"}, {"config": {"bias_constraint": null, "kernel_initializer": {"config": {"scale": 1.0, "seed": null, "mode": "fan_avg", "distribution": "uniform"}, "class_name": "VarianceScaling"}, "use_bias": true, "kernel_size": [3, 3], "padding": "valid", "trainable": true, "kernel_regularizer": null, "name": "seg72", "activation": "relu", "activity_regularizer": null, "data_format": "channels_first", "bias_initializer": {"config": {}, "class_name": "Zeros"}, "filters": 64, "strides": [1, 1], "kernel_constraint": null, "bias_regularizer": null}, "class_name": "Conv2DTranspose", "inbound_nodes": [[["seg7_bn1", 0, 0, {}]]], "name": "seg72"}, {"config": {"trainable": true, "noise_shape": null, "rate": 0.2, "name": "seg7_do12", "seed": null}, "class_name": "Dropout", "inbound_nodes": [[["seg72", 0, 0, {}]]], "name": "seg7_do12"}, {"config": {"trainable": true, "name": "conca3", "axis": 1}, "class_name": "Concatenate", "inbound_nodes": [[["pool2", 0, 0, {}], ["seg7_do12", 0, 0, {}]]], "name": "conca3"}, {"config": {"trainable": true, "name": "up_sampling2d_3", "data_format": "channels_first", "size": [2, 2]}, "class_name": "UpSampling2D", "inbound_nodes": [[["conca3", 0, 0, {}]]], "name": "up_sampling2d_3"}, {"config": {"dilation_rate": [1, 1], "kernel_initializer": {"config": {"scale": 1.0, "seed": null, "mode": "fan_avg", "distribution": "uniform"}, "class_name": "VarianceScaling"}, "use_bias": true, "kernel_size": [3, 3], "padding": "valid", "bias_constraint": null, "trainable": true, "kernel_regularizer": null, "name": "seg80", "activation": "relu", "activity_regularizer": null, "data_format": "channels_first", "bias_initializer": {"config": {}, "class_name": "Zeros"}, "filters": 48, "strides": [1, 1], "kernel_constraint": null, "bias_regularizer": null}, "class_name": "Conv2D", "inbound_nodes": [[["up_sampling2d_3", 0, 0, {}]]], "name": "seg80"}, {"config": {"trainable": true, "noise_shape": null, "rate": 0.2, "name": "seg8_do10", "seed": null}, "class_name": "Dropout", "inbound_nodes": [[["seg80", 0, 0, {}]]], "name": "seg8_do10"}, {"config": {"dilation_rate": [1, 1], "kernel_initializer": {"config": {"scale": 1.0, "seed": null, "mode": "fan_avg", "distribution": "uniform"}, "class_name": "VarianceScaling"}, "use_bias": true, "kernel_size": [3, 3], "padding": "same", "bias_constraint": null, "trainable": true, "kernel_regularizer": null, "name": "seg81", "activation": "relu", "activity_regularizer": null, "data_format": "channels_first", "bias_initializer": {"config": {}, "class_name": "Zeros"}, "filters": 48, "strides": [1, 1], "kernel_constraint": null, "bias_regularizer": null}, "class_name": "Conv2D", "inbound_nodes": [[["seg8_do10", 0, 0, {}]]], "name": "seg81"}, {"config": {"trainable": true, "noise_shape": null, "rate": 0.2, "name": "seg8_do11", "seed": null}, "class_name": "Dropout", "inbound_nodes": [[["seg81", 0, 0, {}]]], "name": "seg8_do11"}, {"config": {"trainable": true, "name": "seg8_conca", "axis": 1}, "class_name": "Concatenate", "inbound_nodes": [[["seg8_do10", 0, 0, {}], ["seg8_do11", 0, 0, {}]]], "name": "seg8_conca"}, {"config": {"gamma_regularizer": null, "gamma_initializer": {"config": {}, "class_name": "Ones"}, "gamma_constraint": null, "moving_mean_initializer": {"config": {}, "class_name": "Zeros"}, "beta_initializer": {"config": {}, "class_name": "Zeros"}, "epsilon": 1.1e-05, "trainable": true, "momentum": 0.99, "axis": -1, "moving_variance_initializer": {"config": {}, "class_name": "Ones"}, "name": "seg8_bn1", "beta_constraint": null, "beta_regularizer": null, "scale": true, "center": true}, "class_name": "BatchNormalization", "inbound_nodes": [[["seg8_conca", 0, 0, {}]]], "name": "seg8_bn1"}, {"config": {"bias_constraint": null, "kernel_initializer": {"config": {"scale": 1.0, "seed": null, "mode": "fan_avg", "distribution": "uniform"}, "class_name": "VarianceScaling"}, "use_bias": true, "kernel_size": [3, 3], "padding": "valid", "trainable": true, "kernel_regularizer": null, "name": "seg82", "activation": "relu", "activity_regularizer": null, "data_format": "channels_first", "bias_initializer": {"config": {}, "class_name": "Zeros"}, "filters": 48, "strides": [1, 1], "kernel_constraint": null, "bias_regularizer": null}, "class_name": "Conv2DTranspose", "inbound_nodes": [[["seg8_bn1", 0, 0, {}]]], "name": "seg82"}, {"config": {"trainable": true, "noise_shape": null, "rate": 0.2, "name": "seg8_do12", "seed": null}, "class_name": "Dropout", "inbound_nodes": [[["seg82", 0, 0, {}]]], "name": "seg8_do12"}, {"config": {"trainable": true, "name": "conca4", "axis": 1}, "class_name": "Concatenate", "inbound_nodes": [[["pool1", 0, 0, {}], ["seg8_do12", 0, 0, {}]]], "name": "conca4"}, {"config": {"trainable": true, "name": "up_sampling2d_4", "data_format": "channels_first", "size": [2, 2]}, "class_name": "UpSampling2D", "inbound_nodes": [[["conca4", 0, 0, {}]]], "name": "up_sampling2d_4"}, {"config": {"dilation_rate": [1, 1], "kernel_initializer": {"config": {"scale": 1.0, "seed": null, "mode": "fan_avg", "distribution": "uniform"}, "class_name": "VarianceScaling"}, "use_bias": true, "kernel_size": [3, 3], "padding": "valid", "bias_constraint": null, "trainable": true, "kernel_regularizer": null, "name": "seg90", "activation": "relu", "activity_regularizer": null, "data_format": "channels_first", "bias_initializer": {"config": {}, "class_name": "Zeros"}, "filters": 32, "strides": [1, 1], "kernel_constraint": null, "bias_regularizer": null}, "class_name": "Conv2D", "inbound_nodes": [[["up_sampling2d_4", 0, 0, {}]]], "name": "seg90"}, {"config": {"trainable": true, "noise_shape": null, "rate": 0.2, "name": "seg9_do10", "seed": null}, "class_name": "Dropout", "inbound_nodes": [[["seg90", 0, 0, {}]]], "name": "seg9_do10"}, {"config": {"dilation_rate": [1, 1], "kernel_initializer": {"config": {"scale": 1.0, "seed": null, "mode": "fan_avg", "distribution": "uniform"}, "class_name": "VarianceScaling"}, "use_bias": true, "kernel_size": [3, 3], "padding": "same", "bias_constraint": null, "trainable": true, "kernel_regularizer": null, "name": "seg91", "activation": "relu", "activity_regularizer": null, "data_format": "channels_first", "bias_initializer": {"config": {}, "class_name": "Zeros"}, "filters": 32, "strides": [1, 1], "kernel_constraint": null, "bias_regularizer": null}, "class_name": "Conv2D", "inbound_nodes": [[["seg9_do10", 0, 0, {}]]], "name": "seg91"}, {"config": {"trainable": true, "noise_shape": null, "rate": 0.2, "name": "seg9_do11", "seed": null}, "class_name": "Dropout", "inbound_nodes": [[["seg91", 0, 0, {}]]], "name": "seg9_do11"}, {"config": {"trainable": true, "name": "seg9_conca", "axis": 1}, "class_name": "Concatenate", "inbound_nodes": [[["seg9_do10", 0, 0, {}], ["seg9_do11", 0, 0, {}]]], "name": "seg9_conca"}, {"config": {"gamma_regularizer": null, "gamma_initializer": {"config": {}, "class_name": "Ones"}, "gamma_constraint": null, "moving_mean_initializer": {"config": {}, "class_name": "Zeros"}, "beta_initializer": {"config": {}, "class_name": "Zeros"}, "epsilon": 1.1e-05, "trainable": true, "momentum": 0.99, "axis": -1, "moving_variance_initializer": {"config": {}, "class_name": "Ones"}, "name": "seg9_bn1", "beta_constraint": null, "beta_regularizer": null, "scale": true, "center": true}, "class_name": "BatchNormalization", "inbound_nodes": [[["seg9_conca", 0, 0, {}]]], "name": "seg9_bn1"}, {"config": {"bias_constraint": null, "kernel_initializer": {"config": {"scale": 1.0, "seed": null, "mode": "fan_avg", "distribution": "uniform"}, "class_name": "VarianceScaling"}, "use_bias": true, "kernel_size": [3, 3], "padding": "valid", "trainable": true, "kernel_regularizer": null, "name": "seg92", "activation": "relu", "activity_regularizer": null, "data_format": "channels_first", "bias_initializer": {"config": {}, "class_name": "Zeros"}, "filters": 32, "strides": [1, 1], "kernel_constraint": null, "bias_regularizer": null}, "class_name": "Conv2DTranspose", "inbound_nodes": [[["seg9_bn1", 0, 0, {}]]], "name": "seg92"}, {"config": {"trainable": true, "noise_shape": null, "rate": 0.2, "name": "seg9_do12", "seed": null}, "class_name": "Dropout", "inbound_nodes": [[["seg92", 0, 0, {}]]], "name": "seg9_do12"}, {"config": {"trainable": true, "name": "conca5", "axis": 1}, "class_name": "Concatenate", "inbound_nodes": [[["seg1_do12", 0, 0, {}], ["seg9_do12", 0, 0, {}]]], "name": "conca5"}, {"config": {"dilation_rate": [1, 1], "kernel_initializer": {"config": {"scale": 1.0, "seed": null, "mode": "fan_avg", "distribution": "uniform"}, "class_name": "VarianceScaling"}, "use_bias": true, "kernel_size": [1, 1], "padding": "valid", "bias_constraint": null, "trainable": true, "kernel_regularizer": null, "name": "conv10", "activation": "relu", "activity_regularizer": null, "data_format": "channels_first", "bias_initializer": {"config": {}, "class_name": "Zeros"}, "filters": 2, "strides": [1, 1], "kernel_constraint": null, "bias_regularizer": null}, "class_name": "Conv2D", "inbound_nodes": [[["conca5", 0, 0, {}]]], "name": "conv10"}, {"config": {"trainable": true, "name": "reshape_1", "target_shape": [2, 295936]}, "class_name": "Reshape", "inbound_nodes": [[["conv10", 0, 0, {}]]], "name": "reshape_1"}, {"config": {"trainable": true, "dims": [2, 1], "name": "permute_1"}, "class_name": "Permute", "inbound_nodes": [[["reshape_1", 0, 0, {}]]], "name": "permute_1"}, {"config": {"trainable": true, "activation": "softmax", "name": "activation_1"}, "class_name": "Activation", "inbound_nodes": [[["permute_1", 0, 0, {}]]], "name": "activation_1"}], "name": "model_1", "input_layers": [["input_1", 0, 0]]}, "class_name": "Model", "backend": "tensorflow", "keras_version": "2.2.0"}